[2023-06-18 13:59:54,437 INFO] Building model...
[2023-06-18 14:00:12,799 INFO] NMTModel(
  (encoder): TransformerEncoder(
    (embeddings): T5EncoderModel(
      (shared): Embedding(128, 1024)
      (encoder): T5Stack(
        (embed_tokens): Embedding(128, 1024)
        (block): ModuleList(
          (0): T5Block(
            (layer): ModuleList(
              (0): T5LayerSelfAttention(
                (SelfAttention): T5Attention(
                  (q): Linear(in_features=1024, out_features=4096, bias=False)
                  (k): Linear(in_features=1024, out_features=4096, bias=False)
                  (v): Linear(in_features=1024, out_features=4096, bias=False)
                  (o): Linear(in_features=4096, out_features=1024, bias=False)
                  (relative_attention_bias): Embedding(32, 32)
                )
                (layer_norm): T5LayerNorm()
                (dropout): Dropout(p=0.1, inplace=False)
              )
              (1): T5LayerFF(
                (DenseReluDense): T5DenseActDense(
                  (wi): Linear(in_features=1024, out_features=16384, bias=False)
                  (wo): Linear(in_features=16384, out_features=1024, bias=False)
                  (dropout): Dropout(p=0.1, inplace=False)
                  (act): ReLU()
                )
                (layer_norm): T5LayerNorm()
                (dropout): Dropout(p=0.1, inplace=False)
              )
            )
          )
          (1): T5Block(
            (layer): ModuleList(
              (0): T5LayerSelfAttention(
                (SelfAttention): T5Attention(
                  (q): Linear(in_features=1024, out_features=4096, bias=False)
                  (k): Linear(in_features=1024, out_features=4096, bias=False)
                  (v): Linear(in_features=1024, out_features=4096, bias=False)
                  (o): Linear(in_features=4096, out_features=1024, bias=False)
                )
                (layer_norm): T5LayerNorm()
                (dropout): Dropout(p=0.1, inplace=False)
              )
              (1): T5LayerFF(
                (DenseReluDense): T5DenseActDense(
                  (wi): Linear(in_features=1024, out_features=16384, bias=False)
                  (wo): Linear(in_features=16384, out_features=1024, bias=False)
                  (dropout): Dropout(p=0.1, inplace=False)
                  (act): ReLU()
                )
                (layer_norm): T5LayerNorm()
                (dropout): Dropout(p=0.1, inplace=False)
              )
            )
          )
          (2): T5Block(
            (layer): ModuleList(
              (0): T5LayerSelfAttention(
                (SelfAttention): T5Attention(
                  (q): Linear(in_features=1024, out_features=4096, bias=False)
                  (k): Linear(in_features=1024, out_features=4096, bias=False)
                  (v): Linear(in_features=1024, out_features=4096, bias=False)
                  (o): Linear(in_features=4096, out_features=1024, bias=False)
                )
                (layer_norm): T5LayerNorm()
                (dropout): Dropout(p=0.1, inplace=False)
              )
              (1): T5LayerFF(
                (DenseReluDense): T5DenseActDense(
                  (wi): Linear(in_features=1024, out_features=16384, bias=False)
                  (wo): Linear(in_features=16384, out_features=1024, bias=False)
                  (dropout): Dropout(p=0.1, inplace=False)
                  (act): ReLU()
                )
                (layer_norm): T5LayerNorm()
                (dropout): Dropout(p=0.1, inplace=False)
              )
            )
          )
          (3): T5Block(
            (layer): ModuleList(
              (0): T5LayerSelfAttention(
                (SelfAttention): T5Attention(
                  (q): Linear(in_features=1024, out_features=4096, bias=False)
                  (k): Linear(in_features=1024, out_features=4096, bias=False)
                  (v): Linear(in_features=1024, out_features=4096, bias=False)
                  (o): Linear(in_features=4096, out_features=1024, bias=False)
                )
                (layer_norm): T5LayerNorm()
                (dropout): Dropout(p=0.1, inplace=False)
              )
              (1): T5LayerFF(
                (DenseReluDense): T5DenseActDense(
                  (wi): Linear(in_features=1024, out_features=16384, bias=False)
                  (wo): Linear(in_features=16384, out_features=1024, bias=False)
                  (dropout): Dropout(p=0.1, inplace=False)
                  (act): ReLU()
                )
                (layer_norm): T5LayerNorm()
                (dropout): Dropout(p=0.1, inplace=False)
              )
            )
          )
          (4): T5Block(
            (layer): ModuleList(
              (0): T5LayerSelfAttention(
                (SelfAttention): T5Attention(
                  (q): Linear(in_features=1024, out_features=4096, bias=False)
                  (k): Linear(in_features=1024, out_features=4096, bias=False)
                  (v): Linear(in_features=1024, out_features=4096, bias=False)
                  (o): Linear(in_features=4096, out_features=1024, bias=False)
                )
                (layer_norm): T5LayerNorm()
                (dropout): Dropout(p=0.1, inplace=False)
              )
              (1): T5LayerFF(
                (DenseReluDense): T5DenseActDense(
                  (wi): Linear(in_features=1024, out_features=16384, bias=False)
                  (wo): Linear(in_features=16384, out_features=1024, bias=False)
                  (dropout): Dropout(p=0.1, inplace=False)
                  (act): ReLU()
                )
                (layer_norm): T5LayerNorm()
                (dropout): Dropout(p=0.1, inplace=False)
              )
            )
          )
          (5): T5Block(
            (layer): ModuleList(
              (0): T5LayerSelfAttention(
                (SelfAttention): T5Attention(
                  (q): Linear(in_features=1024, out_features=4096, bias=False)
                  (k): Linear(in_features=1024, out_features=4096, bias=False)
                  (v): Linear(in_features=1024, out_features=4096, bias=False)
                  (o): Linear(in_features=4096, out_features=1024, bias=False)
                )
                (layer_norm): T5LayerNorm()
                (dropout): Dropout(p=0.1, inplace=False)
              )
              (1): T5LayerFF(
                (DenseReluDense): T5DenseActDense(
                  (wi): Linear(in_features=1024, out_features=16384, bias=False)
                  (wo): Linear(in_features=16384, out_features=1024, bias=False)
                  (dropout): Dropout(p=0.1, inplace=False)
                  (act): ReLU()
                )
                (layer_norm): T5LayerNorm()
                (dropout): Dropout(p=0.1, inplace=False)
              )
            )
          )
          (6): T5Block(
            (layer): ModuleList(
              (0): T5LayerSelfAttention(
                (SelfAttention): T5Attention(
                  (q): Linear(in_features=1024, out_features=4096, bias=False)
                  (k): Linear(in_features=1024, out_features=4096, bias=False)
                  (v): Linear(in_features=1024, out_features=4096, bias=False)
                  (o): Linear(in_features=4096, out_features=1024, bias=False)
                )
                (layer_norm): T5LayerNorm()
                (dropout): Dropout(p=0.1, inplace=False)
              )
              (1): T5LayerFF(
                (DenseReluDense): T5DenseActDense(
                  (wi): Linear(in_features=1024, out_features=16384, bias=False)
                  (wo): Linear(in_features=16384, out_features=1024, bias=False)
                  (dropout): Dropout(p=0.1, inplace=False)
                  (act): ReLU()
                )
                (layer_norm): T5LayerNorm()
                (dropout): Dropout(p=0.1, inplace=False)
              )
            )
          )
          (7): T5Block(
            (layer): ModuleList(
              (0): T5LayerSelfAttention(
                (SelfAttention): T5Attention(
                  (q): Linear(in_features=1024, out_features=4096, bias=False)
                  (k): Linear(in_features=1024, out_features=4096, bias=False)
                  (v): Linear(in_features=1024, out_features=4096, bias=False)
                  (o): Linear(in_features=4096, out_features=1024, bias=False)
                )
                (layer_norm): T5LayerNorm()
                (dropout): Dropout(p=0.1, inplace=False)
              )
              (1): T5LayerFF(
                (DenseReluDense): T5DenseActDense(
                  (wi): Linear(in_features=1024, out_features=16384, bias=False)
                  (wo): Linear(in_features=16384, out_features=1024, bias=False)
                  (dropout): Dropout(p=0.1, inplace=False)
                  (act): ReLU()
                )
                (layer_norm): T5LayerNorm()
                (dropout): Dropout(p=0.1, inplace=False)
              )
            )
          )
          (8): T5Block(
            (layer): ModuleList(
              (0): T5LayerSelfAttention(
                (SelfAttention): T5Attention(
                  (q): Linear(in_features=1024, out_features=4096, bias=False)
                  (k): Linear(in_features=1024, out_features=4096, bias=False)
                  (v): Linear(in_features=1024, out_features=4096, bias=False)
                  (o): Linear(in_features=4096, out_features=1024, bias=False)
                )
                (layer_norm): T5LayerNorm()
                (dropout): Dropout(p=0.1, inplace=False)
              )
              (1): T5LayerFF(
                (DenseReluDense): T5DenseActDense(
                  (wi): Linear(in_features=1024, out_features=16384, bias=False)
                  (wo): Linear(in_features=16384, out_features=1024, bias=False)
                  (dropout): Dropout(p=0.1, inplace=False)
                  (act): ReLU()
                )
                (layer_norm): T5LayerNorm()
                (dropout): Dropout(p=0.1, inplace=False)
              )
            )
          )
          (9): T5Block(
            (layer): ModuleList(
              (0): T5LayerSelfAttention(
                (SelfAttention): T5Attention(
                  (q): Linear(in_features=1024, out_features=4096, bias=False)
                  (k): Linear(in_features=1024, out_features=4096, bias=False)
                  (v): Linear(in_features=1024, out_features=4096, bias=False)
                  (o): Linear(in_features=4096, out_features=1024, bias=False)
                )
                (layer_norm): T5LayerNorm()
                (dropout): Dropout(p=0.1, inplace=False)
              )
              (1): T5LayerFF(
                (DenseReluDense): T5DenseActDense(
                  (wi): Linear(in_features=1024, out_features=16384, bias=False)
                  (wo): Linear(in_features=16384, out_features=1024, bias=False)
                  (dropout): Dropout(p=0.1, inplace=False)
                  (act): ReLU()
                )
                (layer_norm): T5LayerNorm()
                (dropout): Dropout(p=0.1, inplace=False)
              )
            )
          )
          (10): T5Block(
            (layer): ModuleList(
              (0): T5LayerSelfAttention(
                (SelfAttention): T5Attention(
                  (q): Linear(in_features=1024, out_features=4096, bias=False)
                  (k): Linear(in_features=1024, out_features=4096, bias=False)
                  (v): Linear(in_features=1024, out_features=4096, bias=False)
                  (o): Linear(in_features=4096, out_features=1024, bias=False)
                )
                (layer_norm): T5LayerNorm()
                (dropout): Dropout(p=0.1, inplace=False)
              )
              (1): T5LayerFF(
                (DenseReluDense): T5DenseActDense(
                  (wi): Linear(in_features=1024, out_features=16384, bias=False)
                  (wo): Linear(in_features=16384, out_features=1024, bias=False)
                  (dropout): Dropout(p=0.1, inplace=False)
                  (act): ReLU()
                )
                (layer_norm): T5LayerNorm()
                (dropout): Dropout(p=0.1, inplace=False)
              )
            )
          )
          (11): T5Block(
            (layer): ModuleList(
              (0): T5LayerSelfAttention(
                (SelfAttention): T5Attention(
                  (q): Linear(in_features=1024, out_features=4096, bias=False)
                  (k): Linear(in_features=1024, out_features=4096, bias=False)
                  (v): Linear(in_features=1024, out_features=4096, bias=False)
                  (o): Linear(in_features=4096, out_features=1024, bias=False)
                )
                (layer_norm): T5LayerNorm()
                (dropout): Dropout(p=0.1, inplace=False)
              )
              (1): T5LayerFF(
                (DenseReluDense): T5DenseActDense(
                  (wi): Linear(in_features=1024, out_features=16384, bias=False)
                  (wo): Linear(in_features=16384, out_features=1024, bias=False)
                  (dropout): Dropout(p=0.1, inplace=False)
                  (act): ReLU()
                )
                (layer_norm): T5LayerNorm()
                (dropout): Dropout(p=0.1, inplace=False)
              )
            )
          )
          (12): T5Block(
            (layer): ModuleList(
              (0): T5LayerSelfAttention(
                (SelfAttention): T5Attention(
                  (q): Linear(in_features=1024, out_features=4096, bias=False)
                  (k): Linear(in_features=1024, out_features=4096, bias=False)
                  (v): Linear(in_features=1024, out_features=4096, bias=False)
                  (o): Linear(in_features=4096, out_features=1024, bias=False)
                )
                (layer_norm): T5LayerNorm()
                (dropout): Dropout(p=0.1, inplace=False)
              )
              (1): T5LayerFF(
                (DenseReluDense): T5DenseActDense(
                  (wi): Linear(in_features=1024, out_features=16384, bias=False)
                  (wo): Linear(in_features=16384, out_features=1024, bias=False)
                  (dropout): Dropout(p=0.1, inplace=False)
                  (act): ReLU()
                )
                (layer_norm): T5LayerNorm()
                (dropout): Dropout(p=0.1, inplace=False)
              )
            )
          )
          (13): T5Block(
            (layer): ModuleList(
              (0): T5LayerSelfAttention(
                (SelfAttention): T5Attention(
                  (q): Linear(in_features=1024, out_features=4096, bias=False)
                  (k): Linear(in_features=1024, out_features=4096, bias=False)
                  (v): Linear(in_features=1024, out_features=4096, bias=False)
                  (o): Linear(in_features=4096, out_features=1024, bias=False)
                )
                (layer_norm): T5LayerNorm()
                (dropout): Dropout(p=0.1, inplace=False)
              )
              (1): T5LayerFF(
                (DenseReluDense): T5DenseActDense(
                  (wi): Linear(in_features=1024, out_features=16384, bias=False)
                  (wo): Linear(in_features=16384, out_features=1024, bias=False)
                  (dropout): Dropout(p=0.1, inplace=False)
                  (act): ReLU()
                )
                (layer_norm): T5LayerNorm()
                (dropout): Dropout(p=0.1, inplace=False)
              )
            )
          )
          (14): T5Block(
            (layer): ModuleList(
              (0): T5LayerSelfAttention(
                (SelfAttention): T5Attention(
                  (q): Linear(in_features=1024, out_features=4096, bias=False)
                  (k): Linear(in_features=1024, out_features=4096, bias=False)
                  (v): Linear(in_features=1024, out_features=4096, bias=False)
                  (o): Linear(in_features=4096, out_features=1024, bias=False)
                )
                (layer_norm): T5LayerNorm()
                (dropout): Dropout(p=0.1, inplace=False)
              )
              (1): T5LayerFF(
                (DenseReluDense): T5DenseActDense(
                  (wi): Linear(in_features=1024, out_features=16384, bias=False)
                  (wo): Linear(in_features=16384, out_features=1024, bias=False)
                  (dropout): Dropout(p=0.1, inplace=False)
                  (act): ReLU()
                )
                (layer_norm): T5LayerNorm()
                (dropout): Dropout(p=0.1, inplace=False)
              )
            )
          )
          (15): T5Block(
            (layer): ModuleList(
              (0): T5LayerSelfAttention(
                (SelfAttention): T5Attention(
                  (q): Linear(in_features=1024, out_features=4096, bias=False)
                  (k): Linear(in_features=1024, out_features=4096, bias=False)
                  (v): Linear(in_features=1024, out_features=4096, bias=False)
                  (o): Linear(in_features=4096, out_features=1024, bias=False)
                )
                (layer_norm): T5LayerNorm()
                (dropout): Dropout(p=0.1, inplace=False)
              )
              (1): T5LayerFF(
                (DenseReluDense): T5DenseActDense(
                  (wi): Linear(in_features=1024, out_features=16384, bias=False)
                  (wo): Linear(in_features=16384, out_features=1024, bias=False)
                  (dropout): Dropout(p=0.1, inplace=False)
                  (act): ReLU()
                )
                (layer_norm): T5LayerNorm()
                (dropout): Dropout(p=0.1, inplace=False)
              )
            )
          )
          (16): T5Block(
            (layer): ModuleList(
              (0): T5LayerSelfAttention(
                (SelfAttention): T5Attention(
                  (q): Linear(in_features=1024, out_features=4096, bias=False)
                  (k): Linear(in_features=1024, out_features=4096, bias=False)
                  (v): Linear(in_features=1024, out_features=4096, bias=False)
                  (o): Linear(in_features=4096, out_features=1024, bias=False)
                )
                (layer_norm): T5LayerNorm()
                (dropout): Dropout(p=0.1, inplace=False)
              )
              (1): T5LayerFF(
                (DenseReluDense): T5DenseActDense(
                  (wi): Linear(in_features=1024, out_features=16384, bias=False)
                  (wo): Linear(in_features=16384, out_features=1024, bias=False)
                  (dropout): Dropout(p=0.1, inplace=False)
                  (act): ReLU()
                )
                (layer_norm): T5LayerNorm()
                (dropout): Dropout(p=0.1, inplace=False)
              )
            )
          )
          (17): T5Block(
            (layer): ModuleList(
              (0): T5LayerSelfAttention(
                (SelfAttention): T5Attention(
                  (q): Linear(in_features=1024, out_features=4096, bias=False)
                  (k): Linear(in_features=1024, out_features=4096, bias=False)
                  (v): Linear(in_features=1024, out_features=4096, bias=False)
                  (o): Linear(in_features=4096, out_features=1024, bias=False)
                )
                (layer_norm): T5LayerNorm()
                (dropout): Dropout(p=0.1, inplace=False)
              )
              (1): T5LayerFF(
                (DenseReluDense): T5DenseActDense(
                  (wi): Linear(in_features=1024, out_features=16384, bias=False)
                  (wo): Linear(in_features=16384, out_features=1024, bias=False)
                  (dropout): Dropout(p=0.1, inplace=False)
                  (act): ReLU()
                )
                (layer_norm): T5LayerNorm()
                (dropout): Dropout(p=0.1, inplace=False)
              )
            )
          )
          (18): T5Block(
            (layer): ModuleList(
              (0): T5LayerSelfAttention(
                (SelfAttention): T5Attention(
                  (q): Linear(in_features=1024, out_features=4096, bias=False)
                  (k): Linear(in_features=1024, out_features=4096, bias=False)
                  (v): Linear(in_features=1024, out_features=4096, bias=False)
                  (o): Linear(in_features=4096, out_features=1024, bias=False)
                )
                (layer_norm): T5LayerNorm()
                (dropout): Dropout(p=0.1, inplace=False)
              )
              (1): T5LayerFF(
                (DenseReluDense): T5DenseActDense(
                  (wi): Linear(in_features=1024, out_features=16384, bias=False)
                  (wo): Linear(in_features=16384, out_features=1024, bias=False)
                  (dropout): Dropout(p=0.1, inplace=False)
                  (act): ReLU()
                )
                (layer_norm): T5LayerNorm()
                (dropout): Dropout(p=0.1, inplace=False)
              )
            )
          )
          (19): T5Block(
            (layer): ModuleList(
              (0): T5LayerSelfAttention(
                (SelfAttention): T5Attention(
                  (q): Linear(in_features=1024, out_features=4096, bias=False)
                  (k): Linear(in_features=1024, out_features=4096, bias=False)
                  (v): Linear(in_features=1024, out_features=4096, bias=False)
                  (o): Linear(in_features=4096, out_features=1024, bias=False)
                )
                (layer_norm): T5LayerNorm()
                (dropout): Dropout(p=0.1, inplace=False)
              )
              (1): T5LayerFF(
                (DenseReluDense): T5DenseActDense(
                  (wi): Linear(in_features=1024, out_features=16384, bias=False)
                  (wo): Linear(in_features=16384, out_features=1024, bias=False)
                  (dropout): Dropout(p=0.1, inplace=False)
                  (act): ReLU()
                )
                (layer_norm): T5LayerNorm()
                (dropout): Dropout(p=0.1, inplace=False)
              )
            )
          )
          (20): T5Block(
            (layer): ModuleList(
              (0): T5LayerSelfAttention(
                (SelfAttention): T5Attention(
                  (q): Linear(in_features=1024, out_features=4096, bias=False)
                  (k): Linear(in_features=1024, out_features=4096, bias=False)
                  (v): Linear(in_features=1024, out_features=4096, bias=False)
                  (o): Linear(in_features=4096, out_features=1024, bias=False)
                )
                (layer_norm): T5LayerNorm()
                (dropout): Dropout(p=0.1, inplace=False)
              )
              (1): T5LayerFF(
                (DenseReluDense): T5DenseActDense(
                  (wi): Linear(in_features=1024, out_features=16384, bias=False)
                  (wo): Linear(in_features=16384, out_features=1024, bias=False)
                  (dropout): Dropout(p=0.1, inplace=False)
                  (act): ReLU()
                )
                (layer_norm): T5LayerNorm()
                (dropout): Dropout(p=0.1, inplace=False)
              )
            )
          )
          (21): T5Block(
            (layer): ModuleList(
              (0): T5LayerSelfAttention(
                (SelfAttention): T5Attention(
                  (q): Linear(in_features=1024, out_features=4096, bias=False)
                  (k): Linear(in_features=1024, out_features=4096, bias=False)
                  (v): Linear(in_features=1024, out_features=4096, bias=False)
                  (o): Linear(in_features=4096, out_features=1024, bias=False)
                )
                (layer_norm): T5LayerNorm()
                (dropout): Dropout(p=0.1, inplace=False)
              )
              (1): T5LayerFF(
                (DenseReluDense): T5DenseActDense(
                  (wi): Linear(in_features=1024, out_features=16384, bias=False)
                  (wo): Linear(in_features=16384, out_features=1024, bias=False)
                  (dropout): Dropout(p=0.1, inplace=False)
                  (act): ReLU()
                )
                (layer_norm): T5LayerNorm()
                (dropout): Dropout(p=0.1, inplace=False)
              )
            )
          )
          (22): T5Block(
            (layer): ModuleList(
              (0): T5LayerSelfAttention(
                (SelfAttention): T5Attention(
                  (q): Linear(in_features=1024, out_features=4096, bias=False)
                  (k): Linear(in_features=1024, out_features=4096, bias=False)
                  (v): Linear(in_features=1024, out_features=4096, bias=False)
                  (o): Linear(in_features=4096, out_features=1024, bias=False)
                )
                (layer_norm): T5LayerNorm()
                (dropout): Dropout(p=0.1, inplace=False)
              )
              (1): T5LayerFF(
                (DenseReluDense): T5DenseActDense(
                  (wi): Linear(in_features=1024, out_features=16384, bias=False)
                  (wo): Linear(in_features=16384, out_features=1024, bias=False)
                  (dropout): Dropout(p=0.1, inplace=False)
                  (act): ReLU()
                )
                (layer_norm): T5LayerNorm()
                (dropout): Dropout(p=0.1, inplace=False)
              )
            )
          )
          (23): T5Block(
            (layer): ModuleList(
              (0): T5LayerSelfAttention(
                (SelfAttention): T5Attention(
                  (q): Linear(in_features=1024, out_features=4096, bias=False)
                  (k): Linear(in_features=1024, out_features=4096, bias=False)
                  (v): Linear(in_features=1024, out_features=4096, bias=False)
                  (o): Linear(in_features=4096, out_features=1024, bias=False)
                )
                (layer_norm): T5LayerNorm()
                (dropout): Dropout(p=0.1, inplace=False)
              )
              (1): T5LayerFF(
                (DenseReluDense): T5DenseActDense(
                  (wi): Linear(in_features=1024, out_features=16384, bias=False)
                  (wo): Linear(in_features=16384, out_features=1024, bias=False)
                  (dropout): Dropout(p=0.1, inplace=False)
                  (act): ReLU()
                )
                (layer_norm): T5LayerNorm()
                (dropout): Dropout(p=0.1, inplace=False)
              )
            )
          )
        )
        (final_layer_norm): T5LayerNorm()
        (dropout): Dropout(p=0.1, inplace=False)
      )
    )
    (transformer): ModuleList(
      (0): TransformerEncoderLayer(
        (self_attn): MultiHeadedAttention(
          (linear_keys): Linear(in_features=512, out_features=512, bias=True)
          (linear_values): Linear(in_features=512, out_features=512, bias=True)
          (linear_query): Linear(in_features=512, out_features=512, bias=True)
          (softmax): Softmax(dim=-1)
          (dropout): Dropout(p=0.1, inplace=False)
          (final_linear): Linear(in_features=512, out_features=512, bias=True)
        )
        (att_layer_norm): LayerNorm((512,), eps=1e-06, elementwise_affine=True)
        (feed_forward): PositionwiseFeedForward(
          (w_1): Linear(in_features=512, out_features=2048, bias=True)
          (w_2): Linear(in_features=2048, out_features=512, bias=True)
          (dropout_1): Dropout(p=0.1, inplace=False)
          (relu): ReLU()
        )
        (ffn_layer_norm): LayerNorm((512,), eps=1e-06, elementwise_affine=True)
        (dropout): Dropout(p=0.1, inplace=False)
      )
      (1): TransformerEncoderLayer(
        (self_attn): MultiHeadedAttention(
          (linear_keys): Linear(in_features=512, out_features=512, bias=True)
          (linear_values): Linear(in_features=512, out_features=512, bias=True)
          (linear_query): Linear(in_features=512, out_features=512, bias=True)
          (softmax): Softmax(dim=-1)
          (dropout): Dropout(p=0.1, inplace=False)
          (final_linear): Linear(in_features=512, out_features=512, bias=True)
        )
        (att_layer_norm): LayerNorm((512,), eps=1e-06, elementwise_affine=True)
        (feed_forward): PositionwiseFeedForward(
          (w_1): Linear(in_features=512, out_features=2048, bias=True)
          (w_2): Linear(in_features=2048, out_features=512, bias=True)
          (dropout_1): Dropout(p=0.1, inplace=False)
          (relu): ReLU()
        )
        (ffn_layer_norm): LayerNorm((512,), eps=1e-06, elementwise_affine=True)
        (dropout): Dropout(p=0.1, inplace=False)
      )
      (2): TransformerEncoderLayer(
        (self_attn): MultiHeadedAttention(
          (linear_keys): Linear(in_features=512, out_features=512, bias=True)
          (linear_values): Linear(in_features=512, out_features=512, bias=True)
          (linear_query): Linear(in_features=512, out_features=512, bias=True)
          (softmax): Softmax(dim=-1)
          (dropout): Dropout(p=0.1, inplace=False)
          (final_linear): Linear(in_features=512, out_features=512, bias=True)
        )
        (att_layer_norm): LayerNorm((512,), eps=1e-06, elementwise_affine=True)
        (feed_forward): PositionwiseFeedForward(
          (w_1): Linear(in_features=512, out_features=2048, bias=True)
          (w_2): Linear(in_features=2048, out_features=512, bias=True)
          (dropout_1): Dropout(p=0.1, inplace=False)
          (relu): ReLU()
        )
        (ffn_layer_norm): LayerNorm((512,), eps=1e-06, elementwise_affine=True)
        (dropout): Dropout(p=0.1, inplace=False)
      )
      (3): TransformerEncoderLayer(
        (self_attn): MultiHeadedAttention(
          (linear_keys): Linear(in_features=512, out_features=512, bias=True)
          (linear_values): Linear(in_features=512, out_features=512, bias=True)
          (linear_query): Linear(in_features=512, out_features=512, bias=True)
          (softmax): Softmax(dim=-1)
          (dropout): Dropout(p=0.1, inplace=False)
          (final_linear): Linear(in_features=512, out_features=512, bias=True)
        )
        (att_layer_norm): LayerNorm((512,), eps=1e-06, elementwise_affine=True)
        (feed_forward): PositionwiseFeedForward(
          (w_1): Linear(in_features=512, out_features=2048, bias=True)
          (w_2): Linear(in_features=2048, out_features=512, bias=True)
          (dropout_1): Dropout(p=0.1, inplace=False)
          (relu): ReLU()
        )
        (ffn_layer_norm): LayerNorm((512,), eps=1e-06, elementwise_affine=True)
        (dropout): Dropout(p=0.1, inplace=False)
      )
      (4): TransformerEncoderLayer(
        (self_attn): MultiHeadedAttention(
          (linear_keys): Linear(in_features=512, out_features=512, bias=True)
          (linear_values): Linear(in_features=512, out_features=512, bias=True)
          (linear_query): Linear(in_features=512, out_features=512, bias=True)
          (softmax): Softmax(dim=-1)
          (dropout): Dropout(p=0.1, inplace=False)
          (final_linear): Linear(in_features=512, out_features=512, bias=True)
        )
        (att_layer_norm): LayerNorm((512,), eps=1e-06, elementwise_affine=True)
        (feed_forward): PositionwiseFeedForward(
          (w_1): Linear(in_features=512, out_features=2048, bias=True)
          (w_2): Linear(in_features=2048, out_features=512, bias=True)
          (dropout_1): Dropout(p=0.1, inplace=False)
          (relu): ReLU()
        )
        (ffn_layer_norm): LayerNorm((512,), eps=1e-06, elementwise_affine=True)
        (dropout): Dropout(p=0.1, inplace=False)
      )
      (5): TransformerEncoderLayer(
        (self_attn): MultiHeadedAttention(
          (linear_keys): Linear(in_features=512, out_features=512, bias=True)
          (linear_values): Linear(in_features=512, out_features=512, bias=True)
          (linear_query): Linear(in_features=512, out_features=512, bias=True)
          (softmax): Softmax(dim=-1)
          (dropout): Dropout(p=0.1, inplace=False)
          (final_linear): Linear(in_features=512, out_features=512, bias=True)
        )
        (att_layer_norm): LayerNorm((512,), eps=1e-06, elementwise_affine=True)
        (feed_forward): PositionwiseFeedForward(
          (w_1): Linear(in_features=512, out_features=2048, bias=True)
          (w_2): Linear(in_features=2048, out_features=512, bias=True)
          (dropout_1): Dropout(p=0.1, inplace=False)
          (relu): ReLU()
        )
        (ffn_layer_norm): LayerNorm((512,), eps=1e-06, elementwise_affine=True)
        (dropout): Dropout(p=0.1, inplace=False)
      )
    )
    (layer_norm): LayerNorm((512,), eps=1e-06, elementwise_affine=True)
    (linear_layer): Linear(in_features=1024, out_features=512, bias=True)
    (act): Tanh()
  )
  (decoder): TransformerDecoder(
    (embeddings): T5EncoderModel(
      (shared): Embedding(128, 1024)
      (encoder): T5Stack(
        (embed_tokens): Embedding(128, 1024)
        (block): ModuleList(
          (0): T5Block(
            (layer): ModuleList(
              (0): T5LayerSelfAttention(
                (SelfAttention): T5Attention(
                  (q): Linear(in_features=1024, out_features=4096, bias=False)
                  (k): Linear(in_features=1024, out_features=4096, bias=False)
                  (v): Linear(in_features=1024, out_features=4096, bias=False)
                  (o): Linear(in_features=4096, out_features=1024, bias=False)
                  (relative_attention_bias): Embedding(32, 32)
                )
                (layer_norm): T5LayerNorm()
                (dropout): Dropout(p=0.1, inplace=False)
              )
              (1): T5LayerFF(
                (DenseReluDense): T5DenseActDense(
                  (wi): Linear(in_features=1024, out_features=16384, bias=False)
                  (wo): Linear(in_features=16384, out_features=1024, bias=False)
                  (dropout): Dropout(p=0.1, inplace=False)
                  (act): ReLU()
                )
                (layer_norm): T5LayerNorm()
                (dropout): Dropout(p=0.1, inplace=False)
              )
            )
          )
          (1): T5Block(
            (layer): ModuleList(
              (0): T5LayerSelfAttention(
                (SelfAttention): T5Attention(
                  (q): Linear(in_features=1024, out_features=4096, bias=False)
                  (k): Linear(in_features=1024, out_features=4096, bias=False)
                  (v): Linear(in_features=1024, out_features=4096, bias=False)
                  (o): Linear(in_features=4096, out_features=1024, bias=False)
                )
                (layer_norm): T5LayerNorm()
                (dropout): Dropout(p=0.1, inplace=False)
              )
              (1): T5LayerFF(
                (DenseReluDense): T5DenseActDense(
                  (wi): Linear(in_features=1024, out_features=16384, bias=False)
                  (wo): Linear(in_features=16384, out_features=1024, bias=False)
                  (dropout): Dropout(p=0.1, inplace=False)
                  (act): ReLU()
                )
                (layer_norm): T5LayerNorm()
                (dropout): Dropout(p=0.1, inplace=False)
              )
            )
          )
          (2): T5Block(
            (layer): ModuleList(
              (0): T5LayerSelfAttention(
                (SelfAttention): T5Attention(
                  (q): Linear(in_features=1024, out_features=4096, bias=False)
                  (k): Linear(in_features=1024, out_features=4096, bias=False)
                  (v): Linear(in_features=1024, out_features=4096, bias=False)
                  (o): Linear(in_features=4096, out_features=1024, bias=False)
                )
                (layer_norm): T5LayerNorm()
                (dropout): Dropout(p=0.1, inplace=False)
              )
              (1): T5LayerFF(
                (DenseReluDense): T5DenseActDense(
                  (wi): Linear(in_features=1024, out_features=16384, bias=False)
                  (wo): Linear(in_features=16384, out_features=1024, bias=False)
                  (dropout): Dropout(p=0.1, inplace=False)
                  (act): ReLU()
                )
                (layer_norm): T5LayerNorm()
                (dropout): Dropout(p=0.1, inplace=False)
              )
            )
          )
          (3): T5Block(
            (layer): ModuleList(
              (0): T5LayerSelfAttention(
                (SelfAttention): T5Attention(
                  (q): Linear(in_features=1024, out_features=4096, bias=False)
                  (k): Linear(in_features=1024, out_features=4096, bias=False)
                  (v): Linear(in_features=1024, out_features=4096, bias=False)
                  (o): Linear(in_features=4096, out_features=1024, bias=False)
                )
                (layer_norm): T5LayerNorm()
                (dropout): Dropout(p=0.1, inplace=False)
              )
              (1): T5LayerFF(
                (DenseReluDense): T5DenseActDense(
                  (wi): Linear(in_features=1024, out_features=16384, bias=False)
                  (wo): Linear(in_features=16384, out_features=1024, bias=False)
                  (dropout): Dropout(p=0.1, inplace=False)
                  (act): ReLU()
                )
                (layer_norm): T5LayerNorm()
                (dropout): Dropout(p=0.1, inplace=False)
              )
            )
          )
          (4): T5Block(
            (layer): ModuleList(
              (0): T5LayerSelfAttention(
                (SelfAttention): T5Attention(
                  (q): Linear(in_features=1024, out_features=4096, bias=False)
                  (k): Linear(in_features=1024, out_features=4096, bias=False)
                  (v): Linear(in_features=1024, out_features=4096, bias=False)
                  (o): Linear(in_features=4096, out_features=1024, bias=False)
                )
                (layer_norm): T5LayerNorm()
                (dropout): Dropout(p=0.1, inplace=False)
              )
              (1): T5LayerFF(
                (DenseReluDense): T5DenseActDense(
                  (wi): Linear(in_features=1024, out_features=16384, bias=False)
                  (wo): Linear(in_features=16384, out_features=1024, bias=False)
                  (dropout): Dropout(p=0.1, inplace=False)
                  (act): ReLU()
                )
                (layer_norm): T5LayerNorm()
                (dropout): Dropout(p=0.1, inplace=False)
              )
            )
          )
          (5): T5Block(
            (layer): ModuleList(
              (0): T5LayerSelfAttention(
                (SelfAttention): T5Attention(
                  (q): Linear(in_features=1024, out_features=4096, bias=False)
                  (k): Linear(in_features=1024, out_features=4096, bias=False)
                  (v): Linear(in_features=1024, out_features=4096, bias=False)
                  (o): Linear(in_features=4096, out_features=1024, bias=False)
                )
                (layer_norm): T5LayerNorm()
                (dropout): Dropout(p=0.1, inplace=False)
              )
              (1): T5LayerFF(
                (DenseReluDense): T5DenseActDense(
                  (wi): Linear(in_features=1024, out_features=16384, bias=False)
                  (wo): Linear(in_features=16384, out_features=1024, bias=False)
                  (dropout): Dropout(p=0.1, inplace=False)
                  (act): ReLU()
                )
                (layer_norm): T5LayerNorm()
                (dropout): Dropout(p=0.1, inplace=False)
              )
            )
          )
          (6): T5Block(
            (layer): ModuleList(
              (0): T5LayerSelfAttention(
                (SelfAttention): T5Attention(
                  (q): Linear(in_features=1024, out_features=4096, bias=False)
                  (k): Linear(in_features=1024, out_features=4096, bias=False)
                  (v): Linear(in_features=1024, out_features=4096, bias=False)
                  (o): Linear(in_features=4096, out_features=1024, bias=False)
                )
                (layer_norm): T5LayerNorm()
                (dropout): Dropout(p=0.1, inplace=False)
              )
              (1): T5LayerFF(
                (DenseReluDense): T5DenseActDense(
                  (wi): Linear(in_features=1024, out_features=16384, bias=False)
                  (wo): Linear(in_features=16384, out_features=1024, bias=False)
                  (dropout): Dropout(p=0.1, inplace=False)
                  (act): ReLU()
                )
                (layer_norm): T5LayerNorm()
                (dropout): Dropout(p=0.1, inplace=False)
              )
            )
          )
          (7): T5Block(
            (layer): ModuleList(
              (0): T5LayerSelfAttention(
                (SelfAttention): T5Attention(
                  (q): Linear(in_features=1024, out_features=4096, bias=False)
                  (k): Linear(in_features=1024, out_features=4096, bias=False)
                  (v): Linear(in_features=1024, out_features=4096, bias=False)
                  (o): Linear(in_features=4096, out_features=1024, bias=False)
                )
                (layer_norm): T5LayerNorm()
                (dropout): Dropout(p=0.1, inplace=False)
              )
              (1): T5LayerFF(
                (DenseReluDense): T5DenseActDense(
                  (wi): Linear(in_features=1024, out_features=16384, bias=False)
                  (wo): Linear(in_features=16384, out_features=1024, bias=False)
                  (dropout): Dropout(p=0.1, inplace=False)
                  (act): ReLU()
                )
                (layer_norm): T5LayerNorm()
                (dropout): Dropout(p=0.1, inplace=False)
              )
            )
          )
          (8): T5Block(
            (layer): ModuleList(
              (0): T5LayerSelfAttention(
                (SelfAttention): T5Attention(
                  (q): Linear(in_features=1024, out_features=4096, bias=False)
                  (k): Linear(in_features=1024, out_features=4096, bias=False)
                  (v): Linear(in_features=1024, out_features=4096, bias=False)
                  (o): Linear(in_features=4096, out_features=1024, bias=False)
                )
                (layer_norm): T5LayerNorm()
                (dropout): Dropout(p=0.1, inplace=False)
              )
              (1): T5LayerFF(
                (DenseReluDense): T5DenseActDense(
                  (wi): Linear(in_features=1024, out_features=16384, bias=False)
                  (wo): Linear(in_features=16384, out_features=1024, bias=False)
                  (dropout): Dropout(p=0.1, inplace=False)
                  (act): ReLU()
                )
                (layer_norm): T5LayerNorm()
                (dropout): Dropout(p=0.1, inplace=False)
              )
            )
          )
          (9): T5Block(
            (layer): ModuleList(
              (0): T5LayerSelfAttention(
                (SelfAttention): T5Attention(
                  (q): Linear(in_features=1024, out_features=4096, bias=False)
                  (k): Linear(in_features=1024, out_features=4096, bias=False)
                  (v): Linear(in_features=1024, out_features=4096, bias=False)
                  (o): Linear(in_features=4096, out_features=1024, bias=False)
                )
                (layer_norm): T5LayerNorm()
                (dropout): Dropout(p=0.1, inplace=False)
              )
              (1): T5LayerFF(
                (DenseReluDense): T5DenseActDense(
                  (wi): Linear(in_features=1024, out_features=16384, bias=False)
                  (wo): Linear(in_features=16384, out_features=1024, bias=False)
                  (dropout): Dropout(p=0.1, inplace=False)
                  (act): ReLU()
                )
                (layer_norm): T5LayerNorm()
                (dropout): Dropout(p=0.1, inplace=False)
              )
            )
          )
          (10): T5Block(
            (layer): ModuleList(
              (0): T5LayerSelfAttention(
                (SelfAttention): T5Attention(
                  (q): Linear(in_features=1024, out_features=4096, bias=False)
                  (k): Linear(in_features=1024, out_features=4096, bias=False)
                  (v): Linear(in_features=1024, out_features=4096, bias=False)
                  (o): Linear(in_features=4096, out_features=1024, bias=False)
                )
                (layer_norm): T5LayerNorm()
                (dropout): Dropout(p=0.1, inplace=False)
              )
              (1): T5LayerFF(
                (DenseReluDense): T5DenseActDense(
                  (wi): Linear(in_features=1024, out_features=16384, bias=False)
                  (wo): Linear(in_features=16384, out_features=1024, bias=False)
                  (dropout): Dropout(p=0.1, inplace=False)
                  (act): ReLU()
                )
                (layer_norm): T5LayerNorm()
                (dropout): Dropout(p=0.1, inplace=False)
              )
            )
          )
          (11): T5Block(
            (layer): ModuleList(
              (0): T5LayerSelfAttention(
                (SelfAttention): T5Attention(
                  (q): Linear(in_features=1024, out_features=4096, bias=False)
                  (k): Linear(in_features=1024, out_features=4096, bias=False)
                  (v): Linear(in_features=1024, out_features=4096, bias=False)
                  (o): Linear(in_features=4096, out_features=1024, bias=False)
                )
                (layer_norm): T5LayerNorm()
                (dropout): Dropout(p=0.1, inplace=False)
              )
              (1): T5LayerFF(
                (DenseReluDense): T5DenseActDense(
                  (wi): Linear(in_features=1024, out_features=16384, bias=False)
                  (wo): Linear(in_features=16384, out_features=1024, bias=False)
                  (dropout): Dropout(p=0.1, inplace=False)
                  (act): ReLU()
                )
                (layer_norm): T5LayerNorm()
                (dropout): Dropout(p=0.1, inplace=False)
              )
            )
          )
          (12): T5Block(
            (layer): ModuleList(
              (0): T5LayerSelfAttention(
                (SelfAttention): T5Attention(
                  (q): Linear(in_features=1024, out_features=4096, bias=False)
                  (k): Linear(in_features=1024, out_features=4096, bias=False)
                  (v): Linear(in_features=1024, out_features=4096, bias=False)
                  (o): Linear(in_features=4096, out_features=1024, bias=False)
                )
                (layer_norm): T5LayerNorm()
                (dropout): Dropout(p=0.1, inplace=False)
              )
              (1): T5LayerFF(
                (DenseReluDense): T5DenseActDense(
                  (wi): Linear(in_features=1024, out_features=16384, bias=False)
                  (wo): Linear(in_features=16384, out_features=1024, bias=False)
                  (dropout): Dropout(p=0.1, inplace=False)
                  (act): ReLU()
                )
                (layer_norm): T5LayerNorm()
                (dropout): Dropout(p=0.1, inplace=False)
              )
            )
          )
          (13): T5Block(
            (layer): ModuleList(
              (0): T5LayerSelfAttention(
                (SelfAttention): T5Attention(
                  (q): Linear(in_features=1024, out_features=4096, bias=False)
                  (k): Linear(in_features=1024, out_features=4096, bias=False)
                  (v): Linear(in_features=1024, out_features=4096, bias=False)
                  (o): Linear(in_features=4096, out_features=1024, bias=False)
                )
                (layer_norm): T5LayerNorm()
                (dropout): Dropout(p=0.1, inplace=False)
              )
              (1): T5LayerFF(
                (DenseReluDense): T5DenseActDense(
                  (wi): Linear(in_features=1024, out_features=16384, bias=False)
                  (wo): Linear(in_features=16384, out_features=1024, bias=False)
                  (dropout): Dropout(p=0.1, inplace=False)
                  (act): ReLU()
                )
                (layer_norm): T5LayerNorm()
                (dropout): Dropout(p=0.1, inplace=False)
              )
            )
          )
          (14): T5Block(
            (layer): ModuleList(
              (0): T5LayerSelfAttention(
                (SelfAttention): T5Attention(
                  (q): Linear(in_features=1024, out_features=4096, bias=False)
                  (k): Linear(in_features=1024, out_features=4096, bias=False)
                  (v): Linear(in_features=1024, out_features=4096, bias=False)
                  (o): Linear(in_features=4096, out_features=1024, bias=False)
                )
                (layer_norm): T5LayerNorm()
                (dropout): Dropout(p=0.1, inplace=False)
              )
              (1): T5LayerFF(
                (DenseReluDense): T5DenseActDense(
                  (wi): Linear(in_features=1024, out_features=16384, bias=False)
                  (wo): Linear(in_features=16384, out_features=1024, bias=False)
                  (dropout): Dropout(p=0.1, inplace=False)
                  (act): ReLU()
                )
                (layer_norm): T5LayerNorm()
                (dropout): Dropout(p=0.1, inplace=False)
              )
            )
          )
          (15): T5Block(
            (layer): ModuleList(
              (0): T5LayerSelfAttention(
                (SelfAttention): T5Attention(
                  (q): Linear(in_features=1024, out_features=4096, bias=False)
                  (k): Linear(in_features=1024, out_features=4096, bias=False)
                  (v): Linear(in_features=1024, out_features=4096, bias=False)
                  (o): Linear(in_features=4096, out_features=1024, bias=False)
                )
                (layer_norm): T5LayerNorm()
                (dropout): Dropout(p=0.1, inplace=False)
              )
              (1): T5LayerFF(
                (DenseReluDense): T5DenseActDense(
                  (wi): Linear(in_features=1024, out_features=16384, bias=False)
                  (wo): Linear(in_features=16384, out_features=1024, bias=False)
                  (dropout): Dropout(p=0.1, inplace=False)
                  (act): ReLU()
                )
                (layer_norm): T5LayerNorm()
                (dropout): Dropout(p=0.1, inplace=False)
              )
            )
          )
          (16): T5Block(
            (layer): ModuleList(
              (0): T5LayerSelfAttention(
                (SelfAttention): T5Attention(
                  (q): Linear(in_features=1024, out_features=4096, bias=False)
                  (k): Linear(in_features=1024, out_features=4096, bias=False)
                  (v): Linear(in_features=1024, out_features=4096, bias=False)
                  (o): Linear(in_features=4096, out_features=1024, bias=False)
                )
                (layer_norm): T5LayerNorm()
                (dropout): Dropout(p=0.1, inplace=False)
              )
              (1): T5LayerFF(
                (DenseReluDense): T5DenseActDense(
                  (wi): Linear(in_features=1024, out_features=16384, bias=False)
                  (wo): Linear(in_features=16384, out_features=1024, bias=False)
                  (dropout): Dropout(p=0.1, inplace=False)
                  (act): ReLU()
                )
                (layer_norm): T5LayerNorm()
                (dropout): Dropout(p=0.1, inplace=False)
              )
            )
          )
          (17): T5Block(
            (layer): ModuleList(
              (0): T5LayerSelfAttention(
                (SelfAttention): T5Attention(
                  (q): Linear(in_features=1024, out_features=4096, bias=False)
                  (k): Linear(in_features=1024, out_features=4096, bias=False)
                  (v): Linear(in_features=1024, out_features=4096, bias=False)
                  (o): Linear(in_features=4096, out_features=1024, bias=False)
                )
                (layer_norm): T5LayerNorm()
                (dropout): Dropout(p=0.1, inplace=False)
              )
              (1): T5LayerFF(
                (DenseReluDense): T5DenseActDense(
                  (wi): Linear(in_features=1024, out_features=16384, bias=False)
                  (wo): Linear(in_features=16384, out_features=1024, bias=False)
                  (dropout): Dropout(p=0.1, inplace=False)
                  (act): ReLU()
                )
                (layer_norm): T5LayerNorm()
                (dropout): Dropout(p=0.1, inplace=False)
              )
            )
          )
          (18): T5Block(
            (layer): ModuleList(
              (0): T5LayerSelfAttention(
                (SelfAttention): T5Attention(
                  (q): Linear(in_features=1024, out_features=4096, bias=False)
                  (k): Linear(in_features=1024, out_features=4096, bias=False)
                  (v): Linear(in_features=1024, out_features=4096, bias=False)
                  (o): Linear(in_features=4096, out_features=1024, bias=False)
                )
                (layer_norm): T5LayerNorm()
                (dropout): Dropout(p=0.1, inplace=False)
              )
              (1): T5LayerFF(
                (DenseReluDense): T5DenseActDense(
                  (wi): Linear(in_features=1024, out_features=16384, bias=False)
                  (wo): Linear(in_features=16384, out_features=1024, bias=False)
                  (dropout): Dropout(p=0.1, inplace=False)
                  (act): ReLU()
                )
                (layer_norm): T5LayerNorm()
                (dropout): Dropout(p=0.1, inplace=False)
              )
            )
          )
          (19): T5Block(
            (layer): ModuleList(
              (0): T5LayerSelfAttention(
                (SelfAttention): T5Attention(
                  (q): Linear(in_features=1024, out_features=4096, bias=False)
                  (k): Linear(in_features=1024, out_features=4096, bias=False)
                  (v): Linear(in_features=1024, out_features=4096, bias=False)
                  (o): Linear(in_features=4096, out_features=1024, bias=False)
                )
                (layer_norm): T5LayerNorm()
                (dropout): Dropout(p=0.1, inplace=False)
              )
              (1): T5LayerFF(
                (DenseReluDense): T5DenseActDense(
                  (wi): Linear(in_features=1024, out_features=16384, bias=False)
                  (wo): Linear(in_features=16384, out_features=1024, bias=False)
                  (dropout): Dropout(p=0.1, inplace=False)
                  (act): ReLU()
                )
                (layer_norm): T5LayerNorm()
                (dropout): Dropout(p=0.1, inplace=False)
              )
            )
          )
          (20): T5Block(
            (layer): ModuleList(
              (0): T5LayerSelfAttention(
                (SelfAttention): T5Attention(
                  (q): Linear(in_features=1024, out_features=4096, bias=False)
                  (k): Linear(in_features=1024, out_features=4096, bias=False)
                  (v): Linear(in_features=1024, out_features=4096, bias=False)
                  (o): Linear(in_features=4096, out_features=1024, bias=False)
                )
                (layer_norm): T5LayerNorm()
                (dropout): Dropout(p=0.1, inplace=False)
              )
              (1): T5LayerFF(
                (DenseReluDense): T5DenseActDense(
                  (wi): Linear(in_features=1024, out_features=16384, bias=False)
                  (wo): Linear(in_features=16384, out_features=1024, bias=False)
                  (dropout): Dropout(p=0.1, inplace=False)
                  (act): ReLU()
                )
                (layer_norm): T5LayerNorm()
                (dropout): Dropout(p=0.1, inplace=False)
              )
            )
          )
          (21): T5Block(
            (layer): ModuleList(
              (0): T5LayerSelfAttention(
                (SelfAttention): T5Attention(
                  (q): Linear(in_features=1024, out_features=4096, bias=False)
                  (k): Linear(in_features=1024, out_features=4096, bias=False)
                  (v): Linear(in_features=1024, out_features=4096, bias=False)
                  (o): Linear(in_features=4096, out_features=1024, bias=False)
                )
                (layer_norm): T5LayerNorm()
                (dropout): Dropout(p=0.1, inplace=False)
              )
              (1): T5LayerFF(
                (DenseReluDense): T5DenseActDense(
                  (wi): Linear(in_features=1024, out_features=16384, bias=False)
                  (wo): Linear(in_features=16384, out_features=1024, bias=False)
                  (dropout): Dropout(p=0.1, inplace=False)
                  (act): ReLU()
                )
                (layer_norm): T5LayerNorm()
                (dropout): Dropout(p=0.1, inplace=False)
              )
            )
          )
          (22): T5Block(
            (layer): ModuleList(
              (0): T5LayerSelfAttention(
                (SelfAttention): T5Attention(
                  (q): Linear(in_features=1024, out_features=4096, bias=False)
                  (k): Linear(in_features=1024, out_features=4096, bias=False)
                  (v): Linear(in_features=1024, out_features=4096, bias=False)
                  (o): Linear(in_features=4096, out_features=1024, bias=False)
                )
                (layer_norm): T5LayerNorm()
                (dropout): Dropout(p=0.1, inplace=False)
              )
              (1): T5LayerFF(
                (DenseReluDense): T5DenseActDense(
                  (wi): Linear(in_features=1024, out_features=16384, bias=False)
                  (wo): Linear(in_features=16384, out_features=1024, bias=False)
                  (dropout): Dropout(p=0.1, inplace=False)
                  (act): ReLU()
                )
                (layer_norm): T5LayerNorm()
                (dropout): Dropout(p=0.1, inplace=False)
              )
            )
          )
          (23): T5Block(
            (layer): ModuleList(
              (0): T5LayerSelfAttention(
                (SelfAttention): T5Attention(
                  (q): Linear(in_features=1024, out_features=4096, bias=False)
                  (k): Linear(in_features=1024, out_features=4096, bias=False)
                  (v): Linear(in_features=1024, out_features=4096, bias=False)
                  (o): Linear(in_features=4096, out_features=1024, bias=False)
                )
                (layer_norm): T5LayerNorm()
                (dropout): Dropout(p=0.1, inplace=False)
              )
              (1): T5LayerFF(
                (DenseReluDense): T5DenseActDense(
                  (wi): Linear(in_features=1024, out_features=16384, bias=False)
                  (wo): Linear(in_features=16384, out_features=1024, bias=False)
                  (dropout): Dropout(p=0.1, inplace=False)
                  (act): ReLU()
                )
                (layer_norm): T5LayerNorm()
                (dropout): Dropout(p=0.1, inplace=False)
              )
            )
          )
        )
        (final_layer_norm): T5LayerNorm()
        (dropout): Dropout(p=0.1, inplace=False)
      )
    )
    (transformer_layers): ModuleList(
      (0): TransformerDecoderLayer(
        (self_attn): MultiHeadedAttention(
          (linear_keys): Linear(in_features=512, out_features=512, bias=True)
          (linear_values): Linear(in_features=512, out_features=512, bias=True)
          (linear_query): Linear(in_features=512, out_features=512, bias=True)
          (softmax): Softmax(dim=-1)
          (dropout): Dropout(p=0.1, inplace=False)
          (final_linear): Linear(in_features=512, out_features=512, bias=True)
        )
        (context_attn): MultiHeadedAttention(
          (linear_keys): Linear(in_features=512, out_features=512, bias=True)
          (linear_values): Linear(in_features=512, out_features=512, bias=True)
          (linear_query): Linear(in_features=512, out_features=512, bias=True)
          (softmax): Softmax(dim=-1)
          (dropout): Dropout(p=0.1, inplace=False)
          (final_linear): Linear(in_features=512, out_features=512, bias=True)
        )
        (feed_forward): PositionwiseFeedForward(
          (w_1): Linear(in_features=512, out_features=2048, bias=True)
          (w_2): Linear(in_features=2048, out_features=512, bias=True)
          (dropout_1): Dropout(p=0.1, inplace=False)
          (relu): ReLU()
        )
        (self_att_layer_norm): LayerNorm((512,), eps=1e-06, elementwise_affine=True)
        (enc_att_layer_norm): LayerNorm((512,), eps=1e-06, elementwise_affine=True)
        (ffn_layer_norm): LayerNorm((512,), eps=1e-06, elementwise_affine=True)
        (drop): Dropout(p=0.1, inplace=False)
      )
      (1): TransformerDecoderLayer(
        (self_attn): MultiHeadedAttention(
          (linear_keys): Linear(in_features=512, out_features=512, bias=True)
          (linear_values): Linear(in_features=512, out_features=512, bias=True)
          (linear_query): Linear(in_features=512, out_features=512, bias=True)
          (softmax): Softmax(dim=-1)
          (dropout): Dropout(p=0.1, inplace=False)
          (final_linear): Linear(in_features=512, out_features=512, bias=True)
        )
        (context_attn): MultiHeadedAttention(
          (linear_keys): Linear(in_features=512, out_features=512, bias=True)
          (linear_values): Linear(in_features=512, out_features=512, bias=True)
          (linear_query): Linear(in_features=512, out_features=512, bias=True)
          (softmax): Softmax(dim=-1)
          (dropout): Dropout(p=0.1, inplace=False)
          (final_linear): Linear(in_features=512, out_features=512, bias=True)
        )
        (feed_forward): PositionwiseFeedForward(
          (w_1): Linear(in_features=512, out_features=2048, bias=True)
          (w_2): Linear(in_features=2048, out_features=512, bias=True)
          (dropout_1): Dropout(p=0.1, inplace=False)
          (relu): ReLU()
        )
        (self_att_layer_norm): LayerNorm((512,), eps=1e-06, elementwise_affine=True)
        (enc_att_layer_norm): LayerNorm((512,), eps=1e-06, elementwise_affine=True)
        (ffn_layer_norm): LayerNorm((512,), eps=1e-06, elementwise_affine=True)
        (drop): Dropout(p=0.1, inplace=False)
      )
      (2): TransformerDecoderLayer(
        (self_attn): MultiHeadedAttention(
          (linear_keys): Linear(in_features=512, out_features=512, bias=True)
          (linear_values): Linear(in_features=512, out_features=512, bias=True)
          (linear_query): Linear(in_features=512, out_features=512, bias=True)
          (softmax): Softmax(dim=-1)
          (dropout): Dropout(p=0.1, inplace=False)
          (final_linear): Linear(in_features=512, out_features=512, bias=True)
        )
        (context_attn): MultiHeadedAttention(
          (linear_keys): Linear(in_features=512, out_features=512, bias=True)
          (linear_values): Linear(in_features=512, out_features=512, bias=True)
          (linear_query): Linear(in_features=512, out_features=512, bias=True)
          (softmax): Softmax(dim=-1)
          (dropout): Dropout(p=0.1, inplace=False)
          (final_linear): Linear(in_features=512, out_features=512, bias=True)
        )
        (feed_forward): PositionwiseFeedForward(
          (w_1): Linear(in_features=512, out_features=2048, bias=True)
          (w_2): Linear(in_features=2048, out_features=512, bias=True)
          (dropout_1): Dropout(p=0.1, inplace=False)
          (relu): ReLU()
        )
        (self_att_layer_norm): LayerNorm((512,), eps=1e-06, elementwise_affine=True)
        (enc_att_layer_norm): LayerNorm((512,), eps=1e-06, elementwise_affine=True)
        (ffn_layer_norm): LayerNorm((512,), eps=1e-06, elementwise_affine=True)
        (drop): Dropout(p=0.1, inplace=False)
      )
      (3): TransformerDecoderLayer(
        (self_attn): MultiHeadedAttention(
          (linear_keys): Linear(in_features=512, out_features=512, bias=True)
          (linear_values): Linear(in_features=512, out_features=512, bias=True)
          (linear_query): Linear(in_features=512, out_features=512, bias=True)
          (softmax): Softmax(dim=-1)
          (dropout): Dropout(p=0.1, inplace=False)
          (final_linear): Linear(in_features=512, out_features=512, bias=True)
        )
        (context_attn): MultiHeadedAttention(
          (linear_keys): Linear(in_features=512, out_features=512, bias=True)
          (linear_values): Linear(in_features=512, out_features=512, bias=True)
          (linear_query): Linear(in_features=512, out_features=512, bias=True)
          (softmax): Softmax(dim=-1)
          (dropout): Dropout(p=0.1, inplace=False)
          (final_linear): Linear(in_features=512, out_features=512, bias=True)
        )
        (feed_forward): PositionwiseFeedForward(
          (w_1): Linear(in_features=512, out_features=2048, bias=True)
          (w_2): Linear(in_features=2048, out_features=512, bias=True)
          (dropout_1): Dropout(p=0.1, inplace=False)
          (relu): ReLU()
        )
        (self_att_layer_norm): LayerNorm((512,), eps=1e-06, elementwise_affine=True)
        (enc_att_layer_norm): LayerNorm((512,), eps=1e-06, elementwise_affine=True)
        (ffn_layer_norm): LayerNorm((512,), eps=1e-06, elementwise_affine=True)
        (drop): Dropout(p=0.1, inplace=False)
      )
      (4): TransformerDecoderLayer(
        (self_attn): MultiHeadedAttention(
          (linear_keys): Linear(in_features=512, out_features=512, bias=True)
          (linear_values): Linear(in_features=512, out_features=512, bias=True)
          (linear_query): Linear(in_features=512, out_features=512, bias=True)
          (softmax): Softmax(dim=-1)
          (dropout): Dropout(p=0.1, inplace=False)
          (final_linear): Linear(in_features=512, out_features=512, bias=True)
        )
        (context_attn): MultiHeadedAttention(
          (linear_keys): Linear(in_features=512, out_features=512, bias=True)
          (linear_values): Linear(in_features=512, out_features=512, bias=True)
          (linear_query): Linear(in_features=512, out_features=512, bias=True)
          (softmax): Softmax(dim=-1)
          (dropout): Dropout(p=0.1, inplace=False)
          (final_linear): Linear(in_features=512, out_features=512, bias=True)
        )
        (feed_forward): PositionwiseFeedForward(
          (w_1): Linear(in_features=512, out_features=2048, bias=True)
          (w_2): Linear(in_features=2048, out_features=512, bias=True)
          (dropout_1): Dropout(p=0.1, inplace=False)
          (relu): ReLU()
        )
        (self_att_layer_norm): LayerNorm((512,), eps=1e-06, elementwise_affine=True)
        (enc_att_layer_norm): LayerNorm((512,), eps=1e-06, elementwise_affine=True)
        (ffn_layer_norm): LayerNorm((512,), eps=1e-06, elementwise_affine=True)
        (drop): Dropout(p=0.1, inplace=False)
      )
      (5): TransformerDecoderLayer(
        (self_attn): MultiHeadedAttention(
          (linear_keys): Linear(in_features=512, out_features=512, bias=True)
          (linear_values): Linear(in_features=512, out_features=512, bias=True)
          (linear_query): Linear(in_features=512, out_features=512, bias=True)
          (softmax): Softmax(dim=-1)
          (dropout): Dropout(p=0.1, inplace=False)
          (final_linear): Linear(in_features=512, out_features=512, bias=True)
        )
        (context_attn): MultiHeadedAttention(
          (linear_keys): Linear(in_features=512, out_features=512, bias=True)
          (linear_values): Linear(in_features=512, out_features=512, bias=True)
          (linear_query): Linear(in_features=512, out_features=512, bias=True)
          (softmax): Softmax(dim=-1)
          (dropout): Dropout(p=0.1, inplace=False)
          (final_linear): Linear(in_features=512, out_features=512, bias=True)
        )
        (feed_forward): PositionwiseFeedForward(
          (w_1): Linear(in_features=512, out_features=2048, bias=True)
          (w_2): Linear(in_features=2048, out_features=512, bias=True)
          (dropout_1): Dropout(p=0.1, inplace=False)
          (relu): ReLU()
        )
        (self_att_layer_norm): LayerNorm((512,), eps=1e-06, elementwise_affine=True)
        (enc_att_layer_norm): LayerNorm((512,), eps=1e-06, elementwise_affine=True)
        (ffn_layer_norm): LayerNorm((512,), eps=1e-06, elementwise_affine=True)
        (drop): Dropout(p=0.1, inplace=False)
      )
    )
    (layer_norm): LayerNorm((512,), eps=1e-06, elementwise_affine=True)
    (linear_layer): Linear(in_features=1024, out_features=512, bias=True)
    (act): Tanh()
  )
  (generator): Sequential(
    (0): Linear(in_features=512, out_features=2, bias=True)
  )
)
[2023-06-18 14:00:12,809 INFO] number of parameters: 45191170
Loading train: 0it [00:00, ?it/s]Loading train: 5it [00:00, 45.61it/s]Loading train: 14it [00:00, 68.53it/s]Loading train: 23it [00:00, 76.51it/s]Loading train: 32it [00:00, 81.17it/s]Loading train: 41it [00:00, 82.57it/s]Loading train: 50it [00:00, 82.58it/s]Loading train: 65it 
…
